…
2018-12-17 13:41:32.401162: I tensorflow/core/common_runtime/gpu/gpu_device.cc:988]      0 
2018-12-17 13:41:32.401184: I tensorflow/core/common_runtime/gpu/gpu_device.cc:1001] 0:   N 
2018-12-17 13:41:32.401450: I tensorflow/core/common_runtime/gpu/gpu_device.cc:1115] Created TensorFlow device (/job:localhost/replica:0/task:0/device:GPU:0 with 10750 MB memory) -> physical GPU (device: 0, name: Tesla K40m, pci bus id: 0000:03:00.0, compute capability: 3.5)
_________________________________________________________________
Layer (type)                 Output Shape              Param #   
=================================================================
input_1 (InputLayer)         (None, 80, 80)            0         
_________________________________________________________________
reshape_1 (Reshape)          (None, 80, 80, 1)         0         
_________________________________________________________________
conv2d_1 (Conv2D)            (None, 16, 16, 10)        4000      
_________________________________________________________________
conv2d_2 (Conv2D)            (None, 4, 4, 20)          20000     
_________________________________________________________________
conv2d_3 (Conv2D)            (None, 2, 2, 40)          7200      
_________________________________________________________________
flatten_1 (Flatten)          (None, 160)               0         
_________________________________________________________________
dense_1 (Dense)              (None, 4)                 640       
=================================================================
Total params: 31,840
Trainable params: 31,840
Non-trainable params: 0
_________________________________________________________________
_________________________________________________________________
Layer (type)                 Output Shape              Param #   
=================================================================
input_1 (InputLayer)         (None, 80, 80)            0         
_________________________________________________________________
reshape_1 (Reshape)          (None, 80, 80, 1)         0         
_________________________________________________________________
conv2d_1 (Conv2D)            (None, 16, 16, 10)        4000      
_________________________________________________________________
conv2d_2 (Conv2D)            (None, 4, 4, 20)          20000     
_________________________________________________________________
conv2d_3 (Conv2D)            (None, 2, 2, 40)          7200      
_________________________________________________________________
flatten_1 (Flatten)          (None, 160)               0         
_________________________________________________________________
dense_1 (Dense)              (None, 4)                 640       
=================================================================
Total params: 31,840
Trainable params: 31,840
Non-trainable params: 0
_________________________________________________________________

Created new model with name 'cluster_test'
Starting training...
Epoch 1/1

  32/1559 [..............................] - ETA: 41s - loss: 0.8379
 320/1559 [=====>........................] - ETA: 3s - loss: -0.0854
…
